…
    ENABLED: false
    FLIP: true
    MAX_SIZE: 4000
    MIN_SIZES:
    - 400
    - 500
    - 600
    - 700
    - 800
    - 900
    - 1000
    - 1100
    - 1200
  DETECTIONS_PER_IMAGE: 100
  EVAL_PERIOD: 500
  EXPECTED_RESULTS: []
  KEYPOINT_OKS_SIGMAS: []
  PRECISE_BN:
    ENABLED: false
    NUM_ITER: 200
VERSION: 2
VIS_PERIOD: 0

[04/08 09:07:12] detectron2 INFO: Full config saved to training_dir/SOLOv2_5/0_2_48_2/config.yaml
[04/08 09:07:13] d2.utils.env INFO: Using a generated random seed 13101360
[04/08 09:07:13] d2.engine.defaults INFO: Model:
SOLOv2(
  (backbone): FPN(
    (fpn_lateral2): Conv2d(256, 256, kernel_size=(1, 1), stride=(1, 1))
    (fpn_output2): Conv2d(256, 256, kernel_size=(3, 3), stride=(1, 1), padding=(1, 1))
    (fpn_lateral3): Conv2d(512, 256, kernel_size=(1, 1), stride=(1, 1))
    (fpn_output3): Conv2d(256, 256, kernel_size=(3, 3), stride=(1, 1), padding=(1, 1))
    (fpn_lateral4): Conv2d(1024, 256, kernel_size=(1, 1), stride=(1, 1))
    (fpn_output4): Conv2d(256, 256, kernel_size=(3, 3), stride=(1, 1), padding=(1, 1))
    (fpn_lateral5): Conv2d(2048, 256, kernel_size=(1, 1), stride=(1, 1))
    (fpn_output5): Conv2d(256, 256, kernel_size=(3, 3), stride=(1, 1), padding=(1, 1))
    (top_block): LastLevelMaxPool()
    (bottom_up): ResNet(
      (stem): BasicStem(
        (conv1): Conv2d(
          3, 64, kernel_size=(7, 7), stride=(2, 2), padding=(3, 3), bias=False
          (norm): FrozenBatchNorm2d(num_features=64, eps=1e-05)
        )
      )
      (res2): Sequential(
        (0): BottleneckBlock(
          (shortcut): Conv2d(
            64, 256, kernel_size=(1, 1), stride=(1, 1), bias=False
            (norm): FrozenBatchNorm2d(num_features=256, eps=1e-05)
          )
          (conv1): Conv2d(
            64, 64, kernel_size=(1, 1), stride=(1, 1), bias=False
            (norm): FrozenBatchNorm2d(num_features=64, eps=1e-05)
          )
          (conv2): SplAtConv2d(
            (conv): Conv2d(64, 128, kernel_size=(3, 3), stride=(1, 1), padding=(1, 1), groups=2, bias=False)
            (bn0): FrozenBatchNorm2d(num_features=128, eps=1e-05)
            (relu): ReLU(inplace=True)
            (mish): Mish(inplace=True)
            (fc1): Conv2d(64, 32, kernel_size=(1, 1), stride=(1, 1))
            (bn1): FrozenBatchNorm2d(num_features=32, eps=1e-05)
            (fc2): Conv2d(32, 128, kernel_size=(1, 1), stride=(1, 1))
            (rsoftmax): rSoftMax()
          )
          (conv3): Conv2d(
            64, 256, kernel_size=(1, 1), stride=(1, 1), bias=False
            (norm): FrozenBatchNorm2d(num_features=256, eps=1e-05)
          )
        )
        (1): BottleneckBlock(
          (conv1): Conv2d(
            256, 64, kernel_size=(1, 1), stride=(1, 1), bias=False
            (norm): FrozenBatchNorm2d(num_features=64, eps=1e-05)
          )
          (conv2): SplAtConv2d(
            (conv): Conv2d(64, 128, kernel_size=(3, 3), stride=(1, 1), padding=(1, 1), groups=2, bias=False)
            (bn0): FrozenBatchNorm2d(num_features=128, eps=1e-05)
            (relu): ReLU(inplace=True)
            (mish): Mish(inplace=True)
            (fc1): Conv2d(64, 32, kernel_size=(1, 1), stride=(1, 1))
            (bn1): FrozenBatchNorm2d(num_features=32, eps=1e-05)
            (fc2): Conv2d(32, 128, kernel_size=(1, 1), stride=(1, 1))
            (rsoftmax): rSoftMax()
          )
          (conv3): Conv2d(
            64, 256, kernel_size=(1, 1), stride=(1, 1), bias=False
            (norm): FrozenBatchNorm2d(num_features=256, eps=1e-05)
          )
        )
        (2): BottleneckBlock(
          (conv1): Conv2d(
            256, 64, kernel_size=(1, 1), stride=(1, 1), bias=False
            (norm): FrozenBatchNorm2d(num_features=64, eps=1e-05)
          )
          (conv2): SplAtConv2d(
            (conv): Conv2d(64, 128, kernel_size=(3, 3), stride=(1, 1), padding=(1, 1), groups=2, bias=False)
            (bn0): FrozenBatchNorm2d(num_features=128, eps=1e-05)
            (relu): ReLU(inplace=True)
            (mish): Mish(inplace=True)
            (fc1): Conv2d(64, 32, kernel_size=(1, 1), stride=(1, 1))
            (bn1): FrozenBatchNorm2d(num_features=32, eps=1e-05)
            (fc2): Conv2d(32, 128, kernel_size=(1, 1), stride=(1, 1))
            (rsoftmax): rSoftMax()
          )
          (conv3): Conv2d(
            64, 256, kernel_size=(1, 1), stride=(1, 1), bias=False
            (norm): FrozenBatchNorm2d(num_features=256, eps=1e-05)
          )
        )
      )
      (res3): Sequential(
        (0): BottleneckBlock(
          (shortcut): Conv2d(
            256, 512, kernel_size=(1, 1), stride=(2, 2), bias=False
            (norm): FrozenBatchNorm2d(num_features=512, eps=1e-05)
          )
          (conv1): Conv2d(
            256, 128, kernel_size=(1, 1), stride=(2, 2), bias=False
            (norm): FrozenBatchNorm2d(num_features=128, eps=1e-05)
          )
          (conv2): SplAtConv2d(
            (conv): Conv2d(128, 256, kernel_size=(3, 3), stride=(1, 1), padding=(1, 1), groups=2, bias=False)
            (bn0): FrozenBatchNorm2d(num_features=256, eps=1e-05)
            (relu): ReLU(inplace=True)
            (mish): Mish(inplace=True)
            (fc1): Conv2d(128, 64, kernel_size=(1, 1), stride=(1, 1))
            (bn1): FrozenBatchNorm2d(num_features=64, eps=1e-05)
            (fc2): Conv2d(64, 256, kernel_size=(1, 1), stride=(1, 1))
            (rsoftmax): rSoftMax()
          )
          (conv3): Conv2d(
            128, 512, kernel_size=(1, 1), stride=(1, 1), bias=False
            (norm): FrozenBatchNorm2d(num_features=512, eps=1e-05)
          )
        )
        (1): BottleneckBlock(
          (conv1): Conv2d(
            512, 128, kernel_size=(1, 1), stride=(1, 1), bias=False
            (norm): FrozenBatchNorm2d(num_features=128, eps=1e-05)
          )
          (conv2): SplAtConv2d(
            (conv): Conv2d(128, 256, kernel_size=(3, 3), stride=(1, 1), padding=(1, 1), groups=2, bias=False)
            (bn0): FrozenBatchNorm2d(num_features=256, eps=1e-05)
            (relu): ReLU(inplace=True)
            (mish): Mish(inplace=True)
            (fc1): Conv2d(128, 64, kernel_size=(1, 1), stride=(1, 1))
            (bn1): FrozenBatchNorm2d(num_features=64, eps=1e-05)
            (fc2): Conv2d(64, 256, kernel_size=(1, 1), stride=(1, 1))
            (rsoftmax): rSoftMax()
          )
          (conv3): Conv2d(
            128, 512, kernel_size=(1, 1), stride=(1, 1), bias=False
            (norm): FrozenBatchNorm2d(num_features=512, eps=1e-05)
          )
        )
        (2): BottleneckBlock(
          (conv1): Conv2d(
            512, 128, kernel_size=(1, 1), stride=(1, 1), bias=False
            (norm): FrozenBatchNorm2d(num_features=128, eps=1e-05)
          )
          (conv2): SplAtConv2d(
            (conv): Conv2d(128, 256, kernel_size=(3, 3), stride=(1, 1), padding=(1, 1), groups=2, bias=False)
            (bn0): FrozenBatchNorm2d(num_features=256, eps=1e-05)
            (relu): ReLU(inplace=True)
            (mish): Mish(inplace=True)
            (fc1): Conv2d(128, 64, kernel_size=(1, 1), stride=(1, 1))
            (bn1): FrozenBatchNorm2d(num_features=64, eps=1e-05)
            (fc2): Conv2d(64, 256, kernel_size=(1, 1), stride=(1, 1))
            (rsoftmax): rSoftMax()
          )
          (conv3): Conv2d(
            128, 512, kernel_size=(1, 1), stride=(1, 1), bias=False
            (norm): FrozenBatchNorm2d(num_features=512, eps=1e-05)
          )
        )
        (3): BottleneckBlock(
          (conv1): Conv2d(
            512, 128, kernel_size=(1, 1), stride=(1, 1), bias=False
            (norm): FrozenBatchNorm2d(num_features=128, eps=1e-05)
          )
          (conv2): SplAtConv2d(
            (conv): Conv2d(128, 256, kernel_size=(3, 3), stride=(1, 1), padding=(1, 1), groups=2, bias=False)
            (bn0): FrozenBatchNorm2d(num_features=256, eps=1e-05)
            (relu): ReLU(inplace=True)
            (mish): Mish(inplace=True)
            (fc1): Conv2d(128, 64, kernel_size=(1, 1), stride=(1, 1))
            (bn1): FrozenBatchNorm2d(num_features=64, eps=1e-05)
            (fc2): Conv2d(64, 256, kernel_size=(1, 1), stride=(1, 1))
            (rsoftmax): rSoftMax()
          )
          (conv3): Conv2d(
            128, 512, kernel_size=(1, 1), stride=(1, 1), bias=False
            (norm): FrozenBatchNorm2d(num_features=512, eps=1e-05)
          )
        )
      )
      (res4): Sequential(
        (0): BottleneckBlock(
          (shortcut): Conv2d(
            512, 1024, kernel_size=(1, 1), stride=(2, 2), bias=False
            (norm): FrozenBatchNorm2d(num_features=1024, eps=1e-05)
          )
          (conv1): Conv2d(
            512, 256, kernel_size=(1, 1), stride=(2, 2), bias=False
            (norm): FrozenBatchNorm2d(num_features=256, eps=1e-05)
          )
          (conv2): SplAtConv2d(
            (conv): Conv2d(256, 512, kernel_size=(3, 3), stride=(1, 1), padding=(1, 1), groups=2, bias=False)
            (bn0): FrozenBatchNorm2d(num_features=512, eps=1e-05)
            (relu): ReLU(inplace=True)
            (mish): Mish(inplace=True)
            (fc1): Conv2d(256, 128, kernel_size=(1, 1), stride=(1, 1))
            (bn1): FrozenBatchNorm2d(num_features=128, eps=1e-05)
            (fc2): Conv2d(128, 512, kernel_size=(1, 1), stride=(1, 1))
            (rsoftmax): rSoftMax()
          )
          (conv3): Conv2d(
            256, 1024, kernel_size=(1, 1), stride=(1, 1), bias=False
            (norm): FrozenBatchNorm2d(num_features=1024, eps=1e-05)
          )
        )
        (1): BottleneckBlock(
          (conv1): Conv2d(
            1024, 256, kernel_size=(1, 1), stride=(1, 1), bias=False
            (norm): FrozenBatchNorm2d(num_features=256, eps=1e-05)
          )
          (conv2): SplAtConv2d(
            (conv): Conv2d(256, 512, kernel_size=(3, 3), stride=(1, 1), padding=(1, 1), groups=2, bias=False)
            (bn0): FrozenBatchNorm2d(num_features=512, eps=1e-05)
            (relu): ReLU(inplace=True)
            (mish): Mish(inplace=True)
            (fc1): Conv2d(256, 128, kernel_size=(1, 1), stride=(1, 1))
            (bn1): FrozenBatchNorm2d(num_features=128, eps=1e-05)
            (fc2): Conv2d(128, 512, kernel_size=(1, 1), stride=(1, 1))
            (rsoftmax): rSoftMax()
          )
          (conv3): Conv2d(
            256, 1024, kernel_size=(1, 1), stride=(1, 1), bias=False
            (norm): FrozenBatchNorm2d(num_features=1024, eps=1e-05)
          )
        )
        (2): BottleneckBlock(
          (conv1): Conv2d(
            1024, 256, kernel_size=(1, 1), stride=(1, 1), bias=False
            (norm): FrozenBatchNorm2d(num_features=256, eps=1e-05)
          )
          (conv2): SplAtConv2d(
            (conv): Conv2d(256, 512, kernel_size=(3, 3), stride=(1, 1), padding=(1, 1), groups=2, bias=False)
            (bn0): FrozenBatchNorm2d(num_features=512, eps=1e-05)
            (relu): ReLU(inplace=True)
            (mish): Mish(inplace=True)
            (fc1): Conv2d(256, 128, kernel_size=(1, 1), stride=(1, 1))
            (bn1): FrozenBatchNorm2d(num_features=128, eps=1e-05)
            (fc2): Conv2d(128, 512, kernel_size=(1, 1), stride=(1, 1))
            (rsoftmax): rSoftMax()
          )
          (conv3): Conv2d(
            256, 1024, kernel_size=(1, 1), stride=(1, 1), bias=False
            (norm): FrozenBatchNorm2d(num_features=1024, eps=1e-05)
          )
        )
        (3): BottleneckBlock(
          (conv1): Conv2d(
            1024, 256, kernel_size=(1, 1), stride=(1, 1), bias=False
            (norm): FrozenBatchNorm2d(num_features=256, eps=1e-05)
          )
          (conv2): SplAtConv2d(
            (conv): Conv2d(256, 512, kernel_size=(3, 3), stride=(1, 1), padding=(1, 1), groups=2, bias=False)
            (bn0): FrozenBatchNorm2d(num_features=512, eps=1e-05)
            (relu): ReLU(inplace=True)
            (mish): Mish(inplace=True)
            (fc1): Conv2d(256, 128, kernel_size=(1, 1), stride=(1, 1))
            (bn1): FrozenBatchNorm2d(num_features=128, eps=1e-05)
            (fc2): Conv2d(128, 512, kernel_size=(1, 1), stride=(1, 1))
            (rsoftmax): rSoftMax()
          )
          (conv3): Conv2d(
            256, 1024, kernel_size=(1, 1), stride=(1, 1), bias=False
            (norm): FrozenBatchNorm2d(num_features=1024, eps=1e-05)
          )
        )
        (4): BottleneckBlock(
          (conv1): Conv2d(
            1024, 256, kernel_size=(1, 1), stride=(1, 1), bias=False
            (norm): FrozenBatchNorm2d(num_features=256, eps=1e-05)
          )
          (conv2): SplAtConv2d(
            (conv): Conv2d(256, 512, kernel_size=(3, 3), stride=(1, 1), padding=(1, 1), groups=2, bias=False)
            (bn0): FrozenBatchNorm2d(num_features=512, eps=1e-05)
            (relu): ReLU(inplace=True)
            (mish): Mish(inplace=True)
            (fc1): Conv2d(256, 128, kernel_size=(1, 1), stride=(1, 1))
            (bn1): FrozenBatchNorm2d(num_features=128, eps=1e-05)
            (fc2): Conv2d(128, 512, kernel_size=(1, 1), stride=(1, 1))
            (rsoftmax): rSoftMax()
          )
          (conv3): Conv2d(
            256, 1024, kernel_size=(1, 1), stride=(1, 1), bias=False
            (norm): FrozenBatchNorm2d(num_features=1024, eps=1e-05)
          )
        )
        (5): BottleneckBlock(
          (conv1): Conv2d(
            1024, 256, kernel_size=(1, 1), stride=(1, 1), bias=False
            (norm): FrozenBatchNorm2d(num_features=256, eps=1e-05)
          )
          (conv2): SplAtConv2d(
            (conv): Conv2d(256, 512, kernel_size=(3, 3), stride=(1, 1), padding=(1, 1), groups=2, bias=False)
            (bn0): FrozenBatchNorm2d(num_features=512, eps=1e-05)
            (relu): ReLU(inplace=True)
            (mish): Mish(inplace=True)
            (fc1): Conv2d(256, 128, kernel_size=(1, 1), stride=(1, 1))
            (bn1): FrozenBatchNorm2d(num_features=128, eps=1e-05)
            (fc2): Conv2d(128, 512, kernel_size=(1, 1), stride=(1, 1))
            (rsoftmax): rSoftMax()
          )
          (conv3): Conv2d(
            256, 1024, kernel_size=(1, 1), stride=(1, 1), bias=False
            (norm): FrozenBatchNorm2d(num_features=1024, eps=1e-05)
          )
        )
      )
      (res5): Sequential(
        (0): BottleneckBlock(
          (shortcut): Conv2d(
            1024, 2048, kernel_size=(1, 1), stride=(2, 2), bias=False
            (norm): FrozenBatchNorm2d(num_features=2048, eps=1e-05)
          )
          (conv1): Conv2d(
            1024, 512, kernel_size=(1, 1), stride=(2, 2), bias=False
            (norm): FrozenBatchNorm2d(num_features=512, eps=1e-05)
          )
          (conv2): SplAtConv2d(
            (conv): Conv2d(512, 1024, kernel_size=(3, 3), stride=(1, 1), padding=(1, 1), groups=2, bias=False)
            (bn0): FrozenBatchNorm2d(num_features=1024, eps=1e-05)
            (relu): ReLU(inplace=True)
            (mish): Mish(inplace=True)
            (fc1): Conv2d(512, 256, kernel_size=(1, 1), stride=(1, 1))
            (bn1): FrozenBatchNorm2d(num_features=256, eps=1e-05)
            (fc2): Conv2d(256, 1024, kernel_size=(1, 1), stride=(1, 1))
            (rsoftmax): rSoftMax()
          )
          (conv3): Conv2d(
            512, 2048, kernel_size=(1, 1), stride=(1, 1), bias=False
            (norm): FrozenBatchNorm2d(num_features=2048, eps=1e-05)
          )
        )
        (1): BottleneckBlock(
          (conv1): Conv2d(
            2048, 512, kernel_size=(1, 1), stride=(1, 1), bias=False
            (norm): FrozenBatchNorm2d(num_features=512, eps=1e-05)
          )
          (conv2): SplAtConv2d(
            (conv): Conv2d(512, 1024, kernel_size=(3, 3), stride=(1, 1), padding=(1, 1), groups=2, bias=False)
            (bn0): FrozenBatchNorm2d(num_features=1024, eps=1e-05)
            (relu): ReLU(inplace=True)
            (mish): Mish(inplace=True)
            (fc1): Conv2d(512, 256, kernel_size=(1, 1), stride=(1, 1))
            (bn1): FrozenBatchNorm2d(num_features=256, eps=1e-05)
            (fc2): Conv2d(256, 1024, kernel_size=(1, 1), stride=(1, 1))
            (rsoftmax): rSoftMax()
          )
          (conv3): Conv2d(
            512, 2048, kernel_size=(1, 1), stride=(1, 1), bias=False
            (norm): FrozenBatchNorm2d(num_features=2048, eps=1e-05)
          )
        )
        (2): BottleneckBlock(
          (conv1): Conv2d(
            2048, 512, kernel_size=(1, 1), stride=(1, 1), bias=False
            (norm): FrozenBatchNorm2d(num_features=512, eps=1e-05)
          )
          (conv2): SplAtConv2d(
            (conv): Conv2d(512, 1024, kernel_size=(3, 3), stride=(1, 1), padding=(1, 1), groups=2, bias=False)
            (bn0): FrozenBatchNorm2d(num_features=1024, eps=1e-05)
            (relu): ReLU(inplace=True)
            (mish): Mish(inplace=True)
            (fc1): Conv2d(512, 256, kernel_size=(1, 1), stride=(1, 1))
            (bn1): FrozenBatchNorm2d(num_features=256, eps=1e-05)
            (fc2): Conv2d(256, 1024, kernel_size=(1, 1), stride=(1, 1))
            (rsoftmax): rSoftMax()
          )
          (conv3): Conv2d(
            512, 2048, kernel_size=(1, 1), stride=(1, 1), bias=False
            (norm): FrozenBatchNorm2d(num_features=2048, eps=1e-05)
          )
        )
      )
    )
  )
  (ins_head): SOLOv2InsHead(
    (cate_tower): Sequential(
      (0): Conv2d(256, 512, kernel_size=(3, 3), stride=(1, 1), padding=(1, 1), bias=False)
      (1): GroupNorm(32, 512, eps=1e-05, affine=True)
      (2): ReLU(inplace=True)
      (3): Conv2d(512, 512, kernel_size=(3, 3), stride=(1, 1), padding=(1, 1), bias=False)
      (4): GroupNorm(32, 512, eps=1e-05, affine=True)
      (5): ReLU(inplace=True)
      (6): Conv2d(512, 512, kernel_size=(3, 3), stride=(1, 1), padding=(1, 1), bias=False)
      (7): GroupNorm(32, 512, eps=1e-05, affine=True)
      (8): ReLU(inplace=True)
      (9): Conv2d(512, 512, kernel_size=(3, 3), stride=(1, 1), padding=(1, 1), bias=False)
      (10): GroupNorm(32, 512, eps=1e-05, affine=True)
      (11): ReLU(inplace=True)
    )
    (kernel_tower): Sequential(
      (0): Conv2d(258, 512, kernel_size=(3, 3), stride=(1, 1), padding=(1, 1), bias=False)
      (1): GroupNorm(32, 512, eps=1e-05, affine=True)
      (2): ReLU(inplace=True)
      (3): Conv2d(512, 512, kernel_size=(3, 3), stride=(1, 1), padding=(1, 1), bias=False)
      (4): GroupNorm(32, 512, eps=1e-05, affine=True)
      (5): ReLU(inplace=True)
      (6): Conv2d(512, 512, kernel_size=(3, 3), stride=(1, 1), padding=(1, 1), bias=False)
      (7): GroupNorm(32, 512, eps=1e-05, affine=True)
      (8): ReLU(inplace=True)
      (9): Conv2d(512, 512, kernel_size=(3, 3), stride=(1, 1), padding=(1, 1), bias=False)
      (10): GroupNorm(32, 512, eps=1e-05, affine=True)
      (11): ReLU(inplace=True)
    )
    (cate_pred): Conv2d(512, 2, kernel_size=(3, 3), stride=(1, 1), padding=(1, 1))
    (kernel_pred): Conv2d(512, 256, kernel_size=(3, 3), stride=(1, 1), padding=(1, 1))
  )
  (mask_head): SOLOv2MaskHead(
    (convs_all_levels): ModuleList(
      (0): Sequential(
        (conv0): Sequential(
          (0): Conv2d(256, 128, kernel_size=(3, 3), stride=(1, 1), padding=(1, 1), bias=False)
          (1): GroupNorm(32, 128, eps=1e-05, affine=True)
          (2): ReLU()
        )
      )
      (1): Sequential(
        (conv0): Sequential(
          (0): Conv2d(256, 128, kernel_size=(3, 3), stride=(1, 1), padding=(1, 1), bias=False)
          (1): GroupNorm(32, 128, eps=1e-05, affine=True)
          (2): ReLU()
        )
        (upsample0): Upsample(scale_factor=2.0, mode=bilinear)
      )
      (2): Sequential(
        (conv0): Sequential(
          (0): Conv2d(256, 128, kernel_size=(3, 3), stride=(1, 1), padding=(1, 1), bias=False)
          (1): GroupNorm(32, 128, eps=1e-05, affine=True)
          (2): ReLU()
        )
        (upsample0): Upsample(scale_factor=2.0, mode=bilinear)
        (conv1): Sequential(
          (0): Conv2d(128, 128, kernel_size=(3, 3), stride=(1, 1), padding=(1, 1), bias=False)
          (1): GroupNorm(32, 128, eps=1e-05, affine=True)
          (2): ReLU()
        )
        (upsample1): Upsample(scale_factor=2.0, mode=bilinear)
      )
      (3): Sequential(
        (conv0): Sequential(
          (0): Conv2d(258, 128, kernel_size=(3, 3), stride=(1, 1), padding=(1, 1), bias=False)
          (1): GroupNorm(32, 128, eps=1e-05, affine=True)
          (2): ReLU()
        )
        (upsample0): Upsample(scale_factor=2.0, mode=bilinear)
        (conv1): Sequential(
          (0): Conv2d(128, 128, kernel_size=(3, 3), stride=(1, 1), padding=(1, 1), bias=False)
          (1): GroupNorm(32, 128, eps=1e-05, affine=True)
          (2): ReLU()
        )
        (upsample1): Upsample(scale_factor=2.0, mode=bilinear)
        (conv2): Sequential(
          (0): Conv2d(128, 128, kernel_size=(3, 3), stride=(1, 1), padding=(1, 1), bias=False)
          (1): GroupNorm(32, 128, eps=1e-05, affine=True)
          (2): ReLU()
        )
        (upsample2): Upsample(scale_factor=2.0, mode=bilinear)
      )
    )
    (conv_pred): Sequential(
      (0): Conv2d(128, 256, kernel_size=(1, 1), stride=(1, 1), bias=False)
      (1): GroupNorm(32, 256, eps=1e-05, affine=True)
      (2): ReLU(inplace=True)
    )
  )
)
[04/08 09:07:13] d2.data.dataset_mapper INFO: [DatasetMapper] Augmentations used in training: [ResizeShortestEdge(short_edge_length=(640, 672, 704, 736, 768, 800), max_size=1333, sample_style='choice'), RandomFlip()]
[04/08 09:07:13] adet.data.dataset_mapper INFO: Rebuilding the augmentations. The previous augmentations will be overridden.
…
